pointersect/checkpoint/epoch700.pth (torch, 514587 bytes, 46 tensors)

learned_token f4 [64]
0	0x3f1da891	0.61585337
1	0x3f62e047	0.8862347
2	0x3f9f31ab	1.2437032
3	0x3f9e1f85	1.2353369
4	0xbd615731	-0.055014793
5	0xbe2e8f64	-0.17046887
6	0x3f39acd3	0.72529334
7	0xbee4e5e1	-0.44706634
8	0x3e8032bc	0.25038707
9	0xbec79e43	-0.38987932
10	0xbe597d34	-0.21239167
11	0xbfec2231	-1.8447934
12	0xbec903d0	-0.3926072
13	0xbef01aa3	-0.46895322
14	0x3f681703	0.90660113
15	0xbf031e8d	-0.5121849
16	0x3f8ac902	1.0842593
17	0xbd6db010	-0.058029234
18	0xbaa5002c	-0.0012588552
19	0xbf07eb14	-0.53093076
20	0xbf1b71f0	-0.6072073
21	0xbec0feb3	-0.3769432
22	0xbf1c030a	-0.6094214
23	0x3ccdfbcd	0.025144482
24	0xbfcf4ec3	-1.6195911
25	0xbfd1fc8a	-1.6405194
26	0xbd879881	-0.06620885
27	0xbfbbf385	-1.4683691
28	0x40259308	2.587099
29	0x3fdc1307	1.7193307
30	0xbf8ec986	-1.115525
31	0x3f8ac596	1.0841548
32	0xbf48fdd0	-0.7851229
33	0xbff00c12	-1.8753684
34	0x3ea099dd	0.31367388
35	0x3df1bdcd	0.1180378
36	0xbd32a630	-0.04361552
37	0xbe4a6fff	-0.19769286
38	0x3f671169	0.9026094
39	0x3f8b78e4	1.0896268
40	0x3f0165cb	0.5054595
41	0x3f6822ae	0.90677917
42	0x3f914029	1.1347705
43	0xc0266fe2	-2.6005788
44	0x3f922577	1.1417683
45	0x3e9137c9	0.28362873
46	0x3f0b9d11	0.5453654
47	0x3e828edd	0.2549962
48	0xbfc3bc19	-1.5291778
49	0x3ede0d60	0.4336958
50	0xbf6815f7	-0.90658516
51	0x3ef3619c	0.47535408
52	0xbfb01309	-1.3755809
53	0x3e66065a	0.2246336
54	0x3ea72656	0.32646435
55	0xbf8baf0b	-1.0912794
56	0xc00ebfd0	-2.2304573
57	0x3deccb6b	0.115622364
58	0xbf6e2059	-0.9301811
59	0x40357ff2	2.8359342
60	0xbf1a0623	-0.60165614
61	0xbfd958d6	-1.6980236
62	0xbf2ec3c6	-0.68267477
63	0x3f5518ef	0.8324117

learned_invalid_input_token f4 [64]
0	0x3c8e3765	0.017360399
1	0x3e44c3f6	0.19215378
2	0xbced6df2	-0.02898309
3	0xbe91eeb8	-0.2850244
4	0x3e8d8eb3	0.27647933
5	0x3e13e385	0.1444226
6	0xbdc662b0	-0.09686792
7	0xbeb53761	-0.35393813
8	0x3e9b5308	0.30336785
9	0x3db5a111	0.088686116
10	0x3e859408	0.260895
11	0xbe6f6b34	-0.23380738
12	0x3de96bdf	0.11397528
13	0xbe2a1ac1	-0.16611768
14	0xbe76a4c2	-0.24086288
15	0x3e9696ed	0.29412022
16	0xbb8e7679	-0.004347619
17	0xbd892290	-0.066960454
18	0x3d015c5b	0.031582218
19	0x3ea8a9d8	0.3294208
20	0xbe091497	-0.1338676
21	0xbde9a6b8	-0.11408752
22	0x3e269951	0.16269423
23	0x3e97bc17	0.2963569
24	0xbe865406	-0.2623598
25	0x3e60ac89	0.21940817
26	0xbeafedac	-0.34361017
27	0x3e951cff	0.29123685
28	0x3b4b2e4c	0.0031002937
29	0x3e360892	0.17776707
30	0x3d23be12	0.039976187
31	0x3db7c1d6	0.08972518
32	0xbd61999e	-0.05507814
33	0x3c59a61a	0.013284231
34	0x3ddddadc	0.1083276
35	0xbc3da612	-0.011575239
36	0x3e644a94	0.22294074
37	0xbd228836	-0.039680682
38	0xbd31ae66	-0.04337921
39	0xbb9cc29e	-0.0047839424
40	0xbe9371b3	-0.28797683
41	0x3dc40069	0.09570391
42	0xbdd62a89	-0.10457332
43	0x3d9cc567	0.07654839
44	0xbe8702a2	-0.26369196
45	0x3ead7349	0.33877018
46	0xbe5d064d	-0.21584435
47	0x3cda9e0f	0.026686696
48	0x3e0e1501	0.138752
49	0xbe4f58e9	-0.2024876
50	0xbe374917	-0.17898975
51	0xbe8816d5	-0.2657992
52	0xbe7f0531	-0.24904324
53	0x3cec67ae	0.028858032
54	0xbdea393d	-0.114366986
55	0xbe327db7	-0.17430769
56	0xbdf1b851	-0.11802734
57	0xbdb151d2	-0.08658184
58	0xbe9743f9	-0.29544047
59	0x3e04c54d	0.1296589
60	0x3c99389c	0.018703751
61	0x3e116d3d	0.14201827
62	0x3d28fef8	0.041258782
63	0xbd031aca	-0.03200797

input_linear.main.0.weight f4 [32, 20]
0	0xc004cbe7	-2.0749452
1	0xbf8c4c05	-1.0960699
2	0xbee9b912	-0.4564901
3	0xbedb6ed0	-0.4285798
4	0x3cd46b1a	0.025929976
5	0x3e594604	0.21218115
6	0xbe64816e	-0.22314999
7	0x3df0c455	0.11756197
8	0xbc298638	-0.010346942
9	0x3e1407ad	0.14456053
10	0x3e3df5d1	0.18550803
11	0x3d025e05	0.031827945
12	0xbe8e605e	-0.27807897
13	0xbefcdaab	-0.4938558
14	0x3e3516c3	0.17684464
15	0x3ea12396	0.31472462
16	0x3e6c3d1c	0.23070186
17	0x3e93d96b	0.28876814
18	0xbe345be3	-0.17613177
19	0xbd84c040	-0.06481981
20	0xbe563b61	-0.20921089
21	0xbe870eca	-0.2637847
22	0x3f915fa1	1.1357309
23	0xbe166de6	-0.1469036
24	0xbeb464c9	-0.35233143
25	0x3e761577	0.24031626
26	0xbe0f493c	-0.1399278
27	0x3d50cfc9	0.05097941
28	0x3eee56d9	0.46550635
29	0xbed568ca	-0.4168151
30	0x3da2d489	0.07950694
31	0xbd8d35e6	-0.06895046
32	0x3ea484dc	0.32132614
33	0x3e918be6	0.28427047
34	0x3eb85233	0.36000213
35	0xbe8b26ad	-0.27177945
36	0xbe6c569f	-0.23079918
37	0xbe908608	-0.28227258
38	0x3e44e278	0.19227016
39	0x3e79485a	0.24344006
40	0xbf417e75	-0.75583583
41	0xc017ed18	-2.373846
42	0xbd86c640	-0.06580782
43	0x3ee1474a	0.43999702
44	0xbcac0298	-0.02099733
45	0xbed704e7	-0.41995928
46	0xbe5c0174	-0.2148493
47	0xbd3885a3	-0.04504932
48	0x3db81106	0.08987622
49	0xbdfaf732	-0.1225418
50	0x3d7e47e6	0.062080286
51	0xba43a8b1	-0.00074637966
52	0xbe19581e	-0.1497502
53	0xbeebaf04	-0.46031964
54	0x3eb8a9b8	0.36066985
55	0x3e24227a	0.16028777
56	0xbe7cca47	-0.24686538
57	0x3dfd53e5	0.12369517
58	0x3e332576	0.17494759
59	0xbe02f0b6	-0.12787136
60	0x3f8dcacd	1.1077515
61	0x3d50d191	0.050981108
62	0x3f957048	1.167489
63	0xbca9518e	-0.020668771
64	0xbc67fd54	-0.014159519
65	0x3e0b2e71	0.13591935
66	0x3de668ed	0.11250482
67	0x3ce66d7e	0.028128382
68	0xbe0051ab	-0.12531154
69	0xbcfafd19	-0.030638264
70	0x3e9064d7	0.28201935
71	0xbe3f37a3	-0.18673567
72	0x3c01dff1	0.007926927
73	0xbe319005	-0.17340095
74	0xbdafb2b2	-0.08579005
75	0x3dc96a19	0.0983469
76	0x3cee771c	0.02910953
77	0x3e5c455b	0.21510832
78	0x3eb554bd	0.35416213
79	0x3d3c0cf6	0.045910798
80	0xc039eb46	-2.904985
81	0x3fe52565	1.7902037
82	0x3ee1844b	0.44046244
83	0x3eb459d1	0.35224774
84	0xbd125bdb	-0.03573213
85	0x3eceee6a	0.4041627
86	0x3be72151	0.007053532
87	0x3d5c152c	0.05373113
88	0xbe273bb0	-0.16331363
89	0xbec9d1b8	-0.39417815
90	0x3c65d048	0.014026709
91	0x3d46bfcb	0.04852275
92	0xbe6acf58	-0.22930658
93	0x3f1d4e59	0.61447674
94	0x3db95865	0.09050063
95	0x3de31922	0.11088778
96	0x3aa2edde	0.0012430509
97	0x3db94af5	0.090475
98	0x3ecab4fb	0.39591202
99	0x3e0d28bc	0.1378507
100	0x3fa34e8f	1.2758349
101	0x3f6d6aab	0.9274089
102	0xbfaaa4f1	-1.3331586
103	0xbd86d388	-0.06583315
104	0x3cb97aee	0.022641625
105	0x3e5e3a6b	0.21701972
106	0xbe0637cb	-0.13107221
107	0x3cb1b81b	0.021694234
108	0x3d95344f	0.07285368
109	0xbe6a0036	-0.22851643
110	0xbe84fa93	-0.25972423
111	0xbd8bbe51	-0.06823409
112	0x3e007542	0.1254473
113	0xbe29bb86	-0.16575441
114	0xbdbe0531	-0.09278334
115	0xbc8d4fb9	-0.017249929
116	0x3c8c663d	0.017138595
117	0x3e8650dd	0.2623357
118	0xbe340978	-0.17581737
119	0xbe6ed69e	-0.23324057
120	0x3fd7d8bc	1.6863017
121	0xbff7a72f	-1.9347895
122	0x3ee55626	0.4479229
123	0x3e354542	0.17702201
124	0x3ec30707	0.380913
125	0x3ea5c5d8	0.32377505
126	0x3df217a3	0.118209146
127	0x3e5d7157	0.21625267
128	0xbeb45312	-0.35219628
129	0xbe8931be	-0.26795763
130	0xbd597525	-0.053090233
131	0xbe83ca78	-0.2574041
132	0xbce90599	-0.028445052
133	0x3f1ef24f	0.62088484
134	0xbf1d89bf	-0.6153831
135	0xbd034bd5	-0.03205474
136	0xbe350bc9	-0.17680277
137	0xbd9c1769	-0.07621653
138	0x3f12a770	0.5728674
139	0x3e08112d	0.13287802
140	0x3f6bc731	0.92100817
141	0x400861db	2.1309726
142	0xbf38bd51	-0.72163874
143	0xbbe4be32	-0.006980681
144	0xbdf96c65	-0.12178878
145	0xbe9553b0	-0.2916541
146	0xbe5d647c	-0.21620363
147	0xbd372c63	-0.044720065
148	0xbee4a45e	-0.44656652
149	0xbeb950d8	-0.3619449
150	0xbcc6e3bd	-0.024278516
151	0xbd7dfe76	-0.06201025
152	0xbd885754	-0.066572815
153	0x3eaf984b	0.34295878
154	0x3c204638	0.009782366
155	0x3e8be91f	0.27326295
156	0xbf126513	-0.57185477
157	0x3e6a227e	0.2286472
158	0xbeb66cc5	-0.3562986
159	0x3e148e2d	0.14507361
160	0xbfea7f7c	-1.8320155
161	0xbf62a7bb	-0.88537186
162	0xbf2b5c1d	-0.6693743
163	0xbd84f206	-0.06491475
164	0x3d63af6d	0.05558722
165	0xbd4928dd	-0.049111236
166	0xbce4d29d	-0.02793246
167	0x3e4bd8e6	0.19906959
168	0x3e484ccc	0.19560546
169	0xbe93629a	-0.28786165
170	0x3d09e510	0.033665717
171	0xbed664f5	-0.418739
172	0xbeccbba6	-0.39986914
173	0x3e877258	0.26454425
174	0xbe48e5c0	-0.19618893
175	0xbe8f7162	-0.28016192
176	0xbe7e9bb3	-0.24864082
177	0xbc6bd4ba	-0.01439398
178	0x3e1d4afe	0.15360638
179	0x3f02059f	0.5078983
180	0xbfaa7a22	-1.3318522
181	0x3fd61e87	1.6728066
182	0xbf2dc672	-0.6788093
183	0x3bbbc17b	0.005729852
184	0x3ca10483	0.019655472
185	0x3ecbffc5	0.39843574
186	0xbe3e5435	-0.1858681
187	0x3d9fad2b	0.07796701
188	0xbe3103b6	-0.17286572
189	0x3df36ebd	0.11886356
190	0xbe365140	-0.17804432
191	0x3ddce00d	0.10784922
192	0x3f0e2e84	0.5553973
193	0xbe80e0d4	-0.2517153
194	0xbedfeefc	-0.43737018
195	0xbe237a50	-0.15964627
196	0x3d666927	0.056252625
197	0x3ea7c5c4	0.3276807
198	0x3e0d3a16	0.1379169
199	0xbe3c1882	-0.18368724
200	0xbe828650	-0.25493097
201	0xc0353080	-2.8310852
202	0xbd4513cf	-0.048114594
203	0xbbd54dfc	-0.0065095406
204	0xbdd52415	-0.10407273
205	0xbc3dbc7b	-0.011580582
206	0x3e153584	0.14571196
207	0x3dbe58b6	0.09294264
208	0xbe8281ed	-0.2548975
209	0xbcbe935f	-0.023263631
210	0x3e4d61b5	0.20056804
211	0x3ee20353	0.4414316
212	0xbed1f782	-0.41009146
213	0x3e804c29	0.25058106
214	0xbc84e42a	-0.016222078
215	0x3cc4ed50	0.02403894
216	0x3d56588d	0.052330542
217	0x3db663cb	0.08905753
218	0x3e4b0a7d	0.1982822
219	0xbe368988	-0.17825902
220	0xbf7e679a	-0.99376833
221	0xbf495f6e	-0.7866124
222	0x3f2b8b00	0.6700897
223	0xbd7b7318	-0.06138906
224	0x3e1a1dcf	0.15050434
225	0xbe402fe6	-0.18768272
226	0x3dde620c	0.10858545
227	0xbdd9d84c	-0.106369585
228	0xbe5c48ae	-0.215121
229	0xbe8e547f	-0.2779884
230	0x3e2804ee	0.1640813
231	0xbebde7eb	-0.37091002
232	0xbca06446	-0.019579064
233	0xbd4e6d24	-0.050397053
234	0x3d950fd5	0.0727841
235	0xbc3e70f3	-0.011623609
236	0x3e7ddcde	0.24791285
237	0x3f1cd0bd	0.6125601
238	0xbee55bfc	-0.4479674
239	0xbeafaadb	-0.3431004
240	0xbf26599b	-0.6498048
241	0x3fbdc15f	1.4824637
242	0x3f86fd6b	1.0546087
243	0x3dff6619	0.124706455
244	0x3d675c4c	0.056484506
245	0x3e58ccf3	0.21171932
246	0xbe055084	-0.13018996
247	0x3e662629	0.22475494
248	0xbe849423	-0.2589427
249	0x3e4b00fd	0.19824596
250	0xbd3f893e	-0.046761744
251	0xbe5a0f3d	-0.21294875
252	0x3d39da09	0.04537395
253	0x3cb87874	0.022518374
254	0xbe6e4287	-0.23267566
255	0x3e8d2782	0.27569205

input_linear.main.0.bias f4 [32]
0	0x3da9e7bb	0.08296152
1	0xbd859192	-0.06521906
2	0x3c369ba0	0.011145502
3	0x3d6adfa3	0.057342183
4	0x3d45cc35	0.04829045
5	0x3d405928	0.046960026
6	0x3d435410	0.04768759
7	0xbd12d827	-0.03585067
8	0x3cec07d1	0.02881232
9	0x3d902946	0.07039122
10	0x3d389c86	0.045071147
11	0x3d9068a8	0.070512116
12	0x3cf5defa	0.03001355
13	0x3e0658db	0.13119833
14	0x3d0a0dff	0.033704754
15	0x3da27f59	0.07934446
16	0x3deaf68a	0.11472805
17	0x3c918e1b	0.017767956
18	0x3d4c12cc	0.049822614
19	0x3dd53b1c	0.10411665
20	0x3d259d66	0.04043331
21	0x3d91dc31	0.07122076
22	0x3d29d3b5	0.041461665
23	0xba80ae0e	-0.0009817497
24	0x3d973b63	0.07384374
25	0xbc1ebe9d	-0.009689
26	0x3da38f06	0.07986264
27	0x3dd8b93b	0.10582205
28	0x3dc2249b	0.09479638
29	0xbc8c362a	-0.017115671
30	0xbceb5947	-0.028729094
31	0x3d45d4f6	0.0482988

input_linear.main.1.weight f4 [64, 32]
0	0xbe91808c	-0.28418386
1	0x3e522985	0.20523651
2	0xbe5be00f	-0.2147219
3	0xbdb70808	-0.08937079
4	0x3e7a7df8	0.24462116
5	0x3e95bc53	0.29245242
6	0x3d4ae5ba	0.04953549
7	0x3ef84e96	0.48497456
8	0x3eea33d2	0.4574266
9	0x3c7f285b	0.015573586
10	0xbe0a7151	-0.1351979
11	0xbecd7b32	-0.40133053
12	0xbe8f4fb6	-0.27990502
13	0x3e7a8311	0.2446406
14	0x3e0b7df3	0.13622265
15	0xbe3c5360	-0.1839118
16	0x3ec8991d	0.39179316
17	0x3eb828a9	0.3596852
18	0x3df03069	0.117279835
19	0x3dc3213c	0.09527823
20	0xbd17e0d0	-0.037079632
21	0xbeb3d1e9	-0.35121086
22	0xbe661884	-0.2247029
23	0xbe8448f9	-0.25836924
24	0x3ed76f24	0.4207698
25	0xbe9b4b38	-0.30330825
26	0x3e1a7f06	0.15087518
27	0x3c574be5	0.013140653
28	0x3e9a5d8f	0.30149505
29	0xbe828296	-0.25490254
30	0xbe802978	-0.25031638
31	0xbe26986d	-0.16269083
32	0xb83b85d7	-4.4708922e-05
33	0x3d7ea7bf	0.062171694
34	0xbd953861	-0.07286144
35	0x3e096f34	0.13421327
36	0xbe12ff7f	-0.14355277
37	0xbe638fea	-0.22222868
38	0x3e59a321	0.21253635
39	0xbd40bc33	-0.04705448
40	0x3d992d29	0.07479317
41	0x3bcfd28e	0.0063422387
42	0x3eac822e	0.3369307
43	0x3decef8e	0.11569129
44	0x3d509c5f	0.050930377
45	0xbeab961f	-0.3351297
46	0x3db214b5	0.08695356
47	0x3e59a89f	0.2125573
48	0xbbed74f8	-0.00724661
49	0x3d1f50bd	0.038895357
50	0xbd7bc8cd	-0.061470795
51	0x3e46e7c1	0.19424345
52	0x3e205b9c	0.15659946
53	0x3e252e93	0.16131048
54	0x3ebedf85	0.37279907
55	0x3f137b99	0.5761047
56	0xbdebb304	-0.11508754
57	0x3e60ea43	0.21964364
58	0xbe4796c2	-0.19491103
59	0xbcfc9e3f	-0.030837176
60	0xbe1454dd	-0.14485498
61	0x3cac084d	0.021000052
62	0x3d15979a	0.03652153
63	0x3e06e37f	0.1317272
64	0xbd4f0cf5	-0.050549466
65	0xbd41b717	-0.04729375
66	0x3df1bcf2	0.118036166
67	0xbe8176e3	-0.25286016
68	0xbce94ae7	-0.028478099
69	0xbc097287	-0.008389122
70	0xbd869ea1	-0.06573225
71	0x3d04c755	0.03241666
72	0x3e0bc356	0.13648733
73	0xbe20355f	-0.1564536
74	0x3e2be80c	0.16787738
75	0x3dfc7fcd	0.123290636
76	0xbe935198	-0.2877319
77	0x3e18ca8d	0.14921017
78	0x3d621f0b	0.055205386
79	0xbe7c6cef	-0.2465093
80	0x3d52ee9b	0.051497083
81	0x3dee0ed3	0.11623921
82	0xbb9c2bc5	-0.00476596
83	0xbf2e211a	-0.6801926
84	0x3e44e347	0.19227324
85	0xbea09d5a	-0.3137005
86	0x3e6ef12b	0.23334186
87	0xbead0884	-0.3379556
88	0x3dcc2c79	0.0996942
89	0xbca29c24	-0.019849844
90	0x3e517c90	0.20457673
91	0x3d0afba5	0.033931393
92	0x3e76d15b	0.241033
93	0xbdcbfa69	-0.09959871
94	0xbd814421	-0.06311823
95	0xbdd85959	-0.10563917
96	0xbf047d5e	-0.51753795
97	0x3dece649	0.11567361
98	0xbe27bc26	-0.16380367
99	0x3e3a8396	0.18214259
100	0xbd3f4ef2	-0.046706147
101	0xbae4e4c5	-0.0017463198
102	0xbe81802f	-0.2529311
103	0x3eb93817	0.36175606
104	0xbe034c60	-0.12822104
105	0x3edc277e	0.4299888
106	0xbda5dab9	-0.08098359
107	0x3d73521e	0.059404485
108	0x3e483db5	0.1955479
109	0xbe8b9f00	-0.27269745
110	0xbcaee204	-0.021348007
111	0xbe11ac2d	-0.14225836
112	0x3e5b5f46	0.21423063
113	0x3e2b5903	0.16733174
114	0xbd383ae2	-0.04497803
115	0xbe77c7ff	-0.24197386
116	0xbe33bf64	-0.17553478
117	0xbee83aab	-0.4535726
118	0xbdbf83cb	-0.093513094
119	0xbf0bcc3f	-0.5460853
120	0xbc3a3e1f	-0.01136735
121	0xbe7f290f	-0.24918006
122	0x3da551a2	0.08072211
123	0xbd54d934	-0.051964954
124	0xbcaeb27d	-0.021325344
125	0xbeea637d	-0.4577903
126	0xbe5da3fb	-0.21644585
127	0x3d0ca532	0.03433723
128	0xbe7f7740	-0.24947834
129	0x3e92da59	0.2868221
130	0x3d48fa0c	0.04906659
131	0x3e7572f3	0.23969631
132	0xbe634ec4	-0.22198015
133	0xbdab22f3	-0.083562754
134	0xbdbe057f	-0.09278392
135	0x3c29a882	0.010355117
136	0xbda46f7c	-0.080290765
137	0xbe16258c	-0.1466276
138	0x3e969d0a	0.29416686
139	0xbdba38c5	-0.09092859
140	0xbf0aa33c	-0.54155326
141	0xbe3c4ac4	-0.18387896
142	0xbdc6fc99	-0.09716148
143	0x3e87c76b	0.2651933
144	0x3d101844	0.03517939
145	0x3d7015ad	0.05861442
146	0x3e06d137	0.13165747
147	0xbd38a6ac	-0.045080826
148	0x3e64777f	0.22311209
149	0x3f383bdc	0.7196634
150	0xbbc222ae	-0.0059245443
151	0x3e580b31	0.21098019
152	0x3d8e2e85	0.06942467
153	0x3d9f3223	0.07773235
154	0xbdd6fe1e	-0.10497688
155	0xbe6d134b	-0.23151891
156	0x3d380ab5	0.044932086
157	0xbe10900b	-0.14117448
158	0x3d18a6f6	0.0372686
159	0x3d372bcf	0.044719514
160	0xbd828310	-0.063726544
161	0xbc8e7584	-0.01739002
162	0xbea37dc4	-0.3193189
163	0x3dafcbaa	0.08583768
164	0x3e911005	0.28332534
165	0xbea28e83	-0.31749353
166	0x3de2bf38	0.11071628
167	0x3d395e8a	0.045256175
168	0xbdda50f6	-0.10659973
169	0x3c107689	0.0088173235
170	0xbedf5832	-0.43621975
171	0x3df7761d	0.12083075
172	0x3eb09ef6	0.34496278
173	0xbdf39908	-0.11894423
174	0x3eb83988	0.35981393
175	0x3eb2f7e3	0.34954748
176	0xbe53efd7	-0.2069696
177	0xbe35d5f6	-0.17757401
178	0xbe10f1a7	-0.14154683
179	0x3e4d9dfc	0.20079798
180	0xbeb264f5	-0.3484265
181	0xbe4509a3	-0.19241957
182	0xbe856d23	-0.26059827
183	0xbea537f4	-0.3226925
184	0xbc7be9af	-0.015375539
185	0x3e540966	0.2070671
186	0x3c32a90a	0.01090456
187	0x3ee24a57	0.44197342
188	0xbeac75d9	-0.3368366
189	0x3e4da68f	0.20083068
190	0x3edf5e9c	0.4362687
191	0x3d9c9014	0.07644668
192	0xbcf5d9bc	-0.03001105
193	0x3e97082b	0.2949842
194	0xbe415f52	-0.18884018
195	0xbc872984	-0.016499288
196	0x3e85411a	0.2602623
197	0xbf05c85e	-0.5225886
198	0xbe7f4c47	-0.24931441
199	0xbdbaecd0	-0.091272
200	0xbe3d3007	-0.18475352
201	0x3e6f5543	0.23372369
202	0x3ec1611b	0.37769398
203	0x3f1d4b59	0.61443096
204	0x3d95dea9	0.0731786
205	0xbdb89e9e	-0.09014629
206	0xbd985181	-0.07437421
207	0x3e3c223f	0.18372439
208	0xbf0df732	-0.55455315
209	0xbe2ffc94	-0.17186195
210	0xbd02e1c9	-0.031953607
211	0x3da16640	0.07880831
212	0x3d95af52	0.0730883
213	0x3e4e15d5	0.20125516
214	0xbe836af2	-0.2566753
215	0xbd2773c3	-0.040881883
216	0x3dc6101b	0.096710406
217	0x3e6c97b5	0.23104747
218	0x3dc94000	0.0982666
219	0xbdf95a30	-0.12175405
220	0xbe142464	-0.14467007
221	0x3decdd03	0.11565592
222	0xbe045306	-0.12922296
223	0x3d9406f5	0.072278894
224	0x3e310a8d	0.17289181
225	0xbf082afa	-0.5319058
226	0x3d999a33	0.07500114
227	0xbc9254e7	-0.01786275
228	0xbe79f6a1	-0.24410488
229	0xbd2c75b2	-0.04210443
230	0x3dd184e4	0.10230425
231	0x3ddb4724	0.10706928
232	0xbe45cbb6	-0.19315991
233	0x3d34defd	0.04415797
234	0xbec25089	-0.37952068
235	0xbda6024f	-0.08105909
236	0x3ed92779	0.42412928
237	0xbdd2bfec	-0.102905124
238	0x3e2c6c41	0.1683817
239	0xbde96f18	-0.113981426
240	0xbdd21372	-0.10257615
241	0xbdd99af4	-0.10625258
242	0x3ea9c9e4	0.33161843
243	0xbeb392dc	-0.35072982
244	0xbd3e27af	-0.046424564
245	0xbdb31c21	-0.087455995
246	0x3f26eac5	0.6520198
247	0x3ccaedb6	0.024771553
248	0x3dcf0c95	0.10109822
249	0xbec85e4f	-0.39134452
250	0x3e69d8f2	0.22836664
251	0x3e5c0d18	0.2148937
252	0xbd7a6be1	-0.061138038
253	0xbe019ea0	-0.12658167
254	0xbcb1a6f4	-0.021686055
255	0x3e8c0224	0.27345383

input_linear.main.1.bias f4 [64]
0	0xbcab683c	-0.020923726
1	0xbb54124f	-0.0032359546
2	0x3d984bbc	0.0743632
3	0x3d1e3a9d	0.038630117
4	0x3c0236b6	0.007947614
5	0x3d13e9c6	0.036111616
6	0xbd338f25	-0.043837685
7	0x3d8a0a35	0.06740228
8	0x3d384108	0.044983894
9	0x3d66175b	0.056174617
10	0x3d6f20f1	0.058381025
11	0x3bbde30d	0.005794889
12	0x3d2bb48a	0.041920222
13	0xbe1cd79f	-0.15316628
14	0x3d4c80de	0.049927585
15	0x3d2d1838	0.042259425
16	0x3d9c249d	0.07624171
17	0xbc5c72f7	-0.013455144
18	0x3d626bac	0.055278465
19	0x3dd47ce5	0.10375384
20	0xbe01ee67	-0.126886
21	0xbcc5d431	-0.024149032
22	0x3d41a97d	0.047280777
23	0x3c3267b8	0.010888986
24	0x3dc4b6f5	0.09605209
25	0x3d07a627	0.03311744
26	0x3d3ffc27	0.04687133
27	0xbe091c90	-0.13389802
28	0x3d08c6f0	0.033392847
29	0xbe1e3f5f	-0.15453862
30	0x3d3122f7	0.043246236
31	0xbd53818d	-0.05163722
32	0xbb9ffaf6	-0.004882212
33	0x3d2e1663	0.04250182
34	0xbc3a8a79	-0.0113855535
35	0x3d24b37e	0.04021024
36	0xbc0e9818	-0.008703254
37	0x3d365b7c	0.04452084
38	0xbd821da8	-0.06353313
39	0x3be76659	0.0070617613
40	0x3d05b33b	0.03264163
41	0x3c9814f9	0.018564688
42	0x3ca1a6ae	0.0197328
43	0x3c9e16da	0.019298006
44	0x3d21f47e	0.039539807
45	0x3da613ed	0.08109269
46	0x3cf54cb6	0.029943805
47	0x3abc6190	0.0014372338
48	0x3db58a87	0.088643126
49	0x3dbe7967	0.093004994
50	0x3d87a21a	0.06622715
51	0x3c0a1159	0.008426988
52	0x3db282c6	0.08716349
53	0x3c974896	0.018467229
54	0x3d9ed194	0.077548176
55	0x3d782777	0.06058451
56	0xbd0e5f53	-0.034758877
57	0x3cb16adb	0.021657398
58	0x3d55a1cc	0.052156255
59	0x3ce7c159	0.028290438
60	0xbe5d18ec	-0.21591538
61	0x3d33a581	0.04385901
62	0x3d3222c8	0.0434902
63	0x3d53edea	0.051740564

input_linear.main.2.weight f4 [64, 64]
0	0xbe71e30c	-0.23621768
1	0x3ece092c	0.40241373
2	0xbba1c9d8	-0.0049373917
3	0xbe096b28	-0.13419783
4	0x3ce2ab0a	0.027669448
5	0x3daf45e7	0.08558255
6	0xbd42b862	-0.047539122
7	0xbdfb06bb	-0.12257143
8	0x3e5e4c07	0.2170869
9	0x3eb0c6e2	0.34526736
10	0xbe65a0ea	-0.22424665
11	0x3e436d88	0.19084752
12	0xbe72dfd4	-0.23718196
13	0xbda2424b	-0.07922801
14	0xbe3bb83c	-0.18331999
15	0x3c2c4904	0.010515455
16	0xbdc0ec92	-0.09420122
17	0x3d5635ff	0.05229759
18	0x3e9d7cd4	0.307593
19	0xbd0998f9	-0.03359315
20	0x3ea6b032	0.325563
21	0x3dd93298	0.10605353
22	0xbd315875	-0.04329725
23	0xbdfd3420	-0.12363458
24	0x3e62a617	0.22133671
25	0x3df37b09	0.118887015
26	0xbe8ede7c	-0.27904117
27	0xbd33baa7	-0.043879177
28	0xbe8b58dc	-0.27216232
29	0x3d099115	0.033585627
30	0x3dc98ed9	0.09841699
31	0xbdc69950	-0.09697211
32	0x3e2262fa	0.15858069
33	0xbecb7958	-0.39741015
34	0x3e0ba5a4	0.13637406
35	0xbda3a2f2	-0.07990064
36	0xbe4b70d4	-0.1986726
37	0xbdb7734c	-0.08957538
38	0xbb4334f0	-0.0029786192
39	0x3e0730c1	0.13202192
40	0xbe142862	-0.1446853
41	0x3e4fe7b4	0.20303231
42	0x3d9eb1dd	0.077487685
43	0xbddf7235	-0.10910455
44	0x3dba1e4d	0.09087811
45	0xbde8a6ee	-0.11359964
46	0x3e92b8be	0.28656572
47	0xbd888624	-0.0666621
48	0x3e66b203	0.22528844
49	0xbe15c700	-0.14626694
50	0xbd32cf2f	-0.043654617
51	0xbe62b137	-0.22137915
52	0xbe812da7	-0.25230142
53	0x3da53245	0.08066229
54	0xbec36c1e	-0.38168424
55	0xbcb0b77b	-0.021571865
56	0x3e929264	0.28627312
57	0xbe2f9ac2	-0.17148879
58	0xbe61dd24	-0.22057015
59	0x3e497ee4	0.19677311
60	0x3d6c8171	0.057740632
61	0x3de18407	0.1101151
62	0x3d8dce75	0.06924144
63	0xbbb6e55c	-0.005581541
64	0xbdbd4346	-0.09241347
65	0x3d962765	0.07331733
66	0xbcbaf57b	-0.022822132
67	0x3c8f50b5	0.017494539
68	0xbc805804	-0.01566697
69	0xbd9c7c86	-0.076409385
70	0xbe3f7c34	-0.18699723
71	0x3e95a2be	0.29225725
72	0x3e499abb	0.19687931
73	0x3d928d53	0.07155862
74	0xbe27c54e	-0.1638386
75	0x3dce9a1c	0.10087988
76	0x3e885617	0.2662818
77	0xbcd44266	-0.025910567
78	0x3d738063	0.05944861
79	0xbd2a36aa	-0.041556038
80	0x3d7a75e6	0.061147593
81	0x3d1ba238	0.0379965
82	0xbc25ecec	-0.010127287
83	0x3e31c82e	0.17361519
84	0xbd62e778	-0.055396527
85	0x3dda18ed	0.106492855
86	0xbe5eb0ec	-0.21747178
87	0xbeb762f4	-0.35817683
88	0xbdf1b05a	-0.118012145
89	0xbe88fce3	-0.26755437
90	0xbe008046	-0.12548932
91	0xbb88a967	-0.004170585
92	0x3d2197d9	0.039451454
93	0xbdc6ed13	-0.09713187
94	0xbd0bb54d	-0.03410845
95	0x3ded7365	0.115942754
96	0x3dc26895	0.09492604
97	0xbdb6fbee	-0.089347705
98	0xbdb9dd27	-0.090753846
99	0xbd2a1b36	-0.041529857
100	0xbe5a56b6	-0.2132214
101	0xbea784f2	-0.32718617
102	0xbe5a3e1b	-0.21312754
103	0xbe38a4ca	-0.18031612
104	0xbdaa3bfa	-0.08312221
105	0xbe021b81	-0.12705804
106	0xbdbedfad	-0.093200065
107	0xbc685b9c	-0.014181998
108	0x3e0b2717	0.1358913
109	0x3e3096d3	0.17245035
110	0xbd815a08	-0.06316
111	0x3e455449	0.19270433
112	0xbd575cef	-0.052578863
113	0xbdd7a72d	-0.10529933
114	0x3ea3b40b	0.319733
115	0xbbe65b9c	-0.0070299637
116	0xbd537203	-0.051622402
117	0xbe59c998	-0.21268308
118	0xbd4d805e	-0.05017125
119	0x3c978247	0.018494738
120	0xbd0470f2	-0.032334276
121	0xbeaf8b76	-0.34286088
122	0x3d5f87f4	0.054573014
123	0xbd5a6186	-0.05331566
124	0xbbd9d445	-0.006647619
125	0x3e6d0f2f	0.23150323
126	0x3da25834	0.0792698
127	0xbb3dd167	-0.0028963925
128	0xbe8395df	-0.2570028
129	0xbce5814f	-0.02801576
130	0x3dde2cfa	0.10848422
131	0xbd53d353	-0.051715206
132	0x3dae6e3b	0.085171185
133	0x3be3ccdd	0.006951912
134	0xbe3e551d	-0.18587156
135	0x3dca6564	0.0988262
136	0x3ebc4faa	0.3677953
137	0x3dc536f4	0.09629622
138	0xbce434e3	-0.02785725
139	0x3e1a3d54	0.15062457
140	0xbd3ef47c	-0.046619877
141	0xbdd48ce5	-0.10378436
142	0xbcfb2c96	-0.030660909
143	0xbe89dfde	-0.2692861
144	0xbdeddd98	-0.11614531
145	0xbd24aecd	-0.040205766
146	0xbd1aa606	-0.03775599
147	0x3cb50686	0.022097837
148	0xbe86ba45	-0.26313987
149	0xbe2a1e01	-0.16613008
150	0xbe02017e	-0.12695882
151	0x3d85195a	0.06498976
152	0x3c8b8801	0.017032625
153	0x3e19b4b0	0.15010333
154	0xbdb4b4c4	-0.08823541
155	0xbd448b79	-0.047984574
156	0x3c33fe05	0.010985856
157	0x3e09ae49	0.13445391
158	0x3ccd7681	0.025080921
159	0xbd16baee	-0.036799364
160	0x39953a2f	0.00028462845
161	0x3e819ba2	0.2531405
162	0x3d67459e	0.056462876
163	0xbe2eea36	-0.17081532
164	0xbc8bef5a	-0.017081905
165	0xbe1d08e2	-0.1533542
166	0xbe20e4ab	-0.1571223
167	0x3d65c6c0	0.056097746
168	0x3e832539	0.25614336
169	0xbd79a281	-0.06094599
170	0x3e2d490f	0.16922401
171	0x3e5f1556	0.21785483
172	0x3e0854de	0.13313624
173	0xbd374680	-0.04474497
174	0x3ea6b8db	0.3256291
175	0x3d28a334	0.041171268
176	0xbeac43fc	-0.33645618
177	0x3da6000b	0.08105477
178	0x3ea242e3	0.31691656
179	0xbe2dd3c2	-0.1697531
180	0xbc6f4995	-0.014604946
181	0xbd296a89	-0.041361365
182	0xbd0169c5	-0.03159501
183	0x3e146e0a	0.14495102
184	0x3e7d8fca	0.24761882
185	0x3c77f324	0.015133653
186	0x3d307836	0.043083392
187	0xbda2ab3f	-0.07942819
188	0xbcdeaa36	-0.027180772
189	0xbe28bf3f	-0.16479205
190	0xbe00f111	-0.1259196
191	0x3dd9da08	0.10637289
192	0xbde4ddc1	-0.11175109
193	0xbd84d3cb	-0.06485709
194	0x3dd1e52e	0.10248791
195	0xbddf73bb	-0.10910746
196	0xbe5ef600	-0.21773529
197	0xbe3a4013	-0.18188505
198	0xbea9d659	-0.33171347
199	0x3e2729ab	0.16324489
200	0x3e75c564	0.2400108
201	0xbdafabad	-0.085776664
202	0x3e9722d9	0.29518774
203	0x3c459a7c	0.012060758
204	0x3cb0131f	0.021493493
205	0x3d48df41	0.049041037
206	0xbde38c11	-0.111107
207	0xbe3468a8	-0.17618048
208	0x3acd9170	0.0015683603
209	0x3e622c01	0.22087099
210	0x3cf5f5d6	0.03002445
211	0x3e50cd63	0.20390849
212	0x3d5f0af2	0.054453798
213	0x3dd9727d	0.1061754
214	0x3d5b4ce1	0.053540114
215	0xbea71cd9	-0.32639197
216	0x3e9e7802	0.30950934
217	0xbe6b8a06	-0.2300187
218	0x3e12ed42	0.14348319
219	0xbcd24d7e	-0.025671717
220	0xbe657fbb	-0.22412007
221	0xbe6817b8	-0.22665298
222	0x3df8badf	0.12145018
223	0x3d65d1ee	0.056108408
224	0xbdcc8222	-0.09985758
225	0xbdc1756e	-0.09446226
226	0xbd4d500d	-0.05012517
227	0xbd4a3ec7	-0.049376275
228	0x3d35ccfc	0.04438494
229	0xbc96fa23	-0.018429821
230	0x3de623fe	0.11237334
231	0xbe87e48d	-0.26541558
232	0xbda145ce	-0.07874642
233	0x3d873795	0.06602398
234	0x3d9e8543	0.077402614
235	0xbe3dc8ba	-0.18533602
236	0x3d3d5955	0.04622777
237	0x3e459381	0.1929455
238	0x3d73ce6b	0.059523027
239	0x3cf89f86	0.030349504
240	0xbe6082d4	-0.21924907
241	0xbe8d29c1	-0.27570918
242	0x3f1508e9	0.5821672
243	0x3e33e0a6	0.17566165
244	0x3c891ce3	0.016737407
245	0xbdefc36a	-0.11707194
246	0x3c0a9d2b	0.008460323
247	0x3cfda0b8	0.030960426
248	0xbe30e509	-0.1727487
249	0x3e8e97d7	0.2785022
250	0x3e2b65d7	0.16738068
251	0xbe61ffe7	-0.22070275
252	0xbd90bf4d	-0.07067738
253	0x3ecf3e6e	0.40477318
254	0xbd9d4c4b	-0.07680567
255	0xb8b21d09	-8.4931096e-05

input_linear.main.2.bias f4 [64]
0	0x3bf0a082	0.007343353
1	0x3d8a1451	0.06742156
2	0xbad9e660	-0.0016624443
3	0x3db6162d	0.088909484
4	0x3dae60c0	0.08514547
5	0x3d067570	0.03282684
6	0x3d4e562c	0.05037515
7	0xbda8cc3c	-0.082420796
8	0xbe0dbdba	-0.13841906
9	0xbc1b2d5e	-0.009471266
10	0xba8cdf33	-0.0010747671
11	0x3cc08b0e	0.023503806
12	0xbd2520a5	-0.040314335
13	0xbcb2a113	-0.021805322
14	0x3e17251a	0.14760247
15	0x3c5d66b9	0.0135132605
16	0x3d35e5a6	0.044408463
17	0x3e0d090d	0.13772984
18	0x3e035f41	0.12829305
19	0x3d1ae647	0.037817266
20	0x3d3fe560	0.04684961
21	0x3ce47247	0.027886523
22	0x3d28ae8e	0.041182093
23	0xbc9e7a1f	-0.019345341
24	0x3cca4bb0	0.024694294
25	0xbc986655	-0.018603483
26	0x3cba784c	0.02276244
27	0xbd804c0f	-0.06264507
28	0x3de58f5b	0.112089835
29	0x3d25443f	0.040348288
30	0x3d9ecbc1	0.07753707
31	0x3d5f691e	0.054543607
32	0x3d4817db	0.048850875
33	0x3ca478c6	0.02007712
34	0x3dbfae12	0.09359373
35	0x3db0d791	0.08634866
36	0x3d353b73	0.04424615
37	0xbc947e41	-0.018126609
38	0x3dcac36d	0.09900556
39	0xbc8104cf	-0.015749363
40	0x3e4b871c	0.19875759
41	0x3db003a1	0.08594442
42	0x3de5428e	0.11194335
43	0xbd1551ac	-0.03645484
44	0x3e1c8b45	0.15287502
45	0x3b9df4da	0.0048204483
46	0x3dd0772f	0.101789825
47	0x3de7b4a5	0.11313752
48	0x3ce90638	0.028445348
49	0x3e001e31	0.12511517
50	0x3d0f1875	0.034935433
51	0x3d9eedd6	0.07760207
52	0x3d66b7be	0.056327574
53	0x3e213c64	0.15745693
54	0x3da81b92	0.082083836
55	0x3ce01f73	0.027358746
56	0x3d3900da	0.045166828
57	0x3aba3151	0.0014205371
58	0x3d785bc9	0.06063441
59	0x3b89dba7	0.004207093
60	0xbdbce4af	-0.092233054
61	0xbc8bba21	-0.017056527
62	0xbc944362	-0.018098537
63	0x3da86141	0.08221675

transformer.layers.0.self_attn.in_proj_weight f4 [192, 64]
0	0xbd4976e9	-0.049185667
1	0x3c7ae95a	0.015314424
2	0xbda2dc5a	-0.07952185
3	0x3e68c623	0.22731833
4	0x3e4d38db	0.2004122
5	0xbd5803dc	-0.052738056
6	0xbc95bb30	-0.018277735
7	0x3d8c1da2	0.068415895
8	0xbd64bc46	-0.055843614
9	0xbebd6f9b	-0.3699921
10	0xbe4bf9ea	-0.19919553
11	0xbe581a0e	-0.21103689
12	0xbe1d12f9	-0.15339269
13	0xbe208d4b	-0.15678899
14	0x3e520c4c	0.20512503
15	0xbe95adf9	-0.29234293
16	0x3de3940d	0.11112223
17	0xbe043277	-0.12909876
18	0xbbb99de3	-0.0056645735
19	0xbe438104	-0.19092184
20	0x3d239731	0.03993911
21	0xbd97afb8	-0.074065626
22	0xbe6d5052	-0.23175171
23	0xbe8cdc35	-0.27511755
24	0xbe29fc8b	-0.16600244
25	0xbe7b2cdc	-0.24528831
26	0xbbbe848a	-0.0058141397
27	0xbdeee079	-0.116639085
28	0x3d7ef9a8	0.06224981
29	0x3e97d5f1	0.29655412
30	0xbe858ce3	-0.2608405
31	0x3e0f5ca8	0.1400019
32	0x3ca01ac4	0.019544013
33	0xbe048ab2	-0.12943533
34	0x3c841f87	0.016128315
35	0x3bf0f72a	0.007353683
36	0xbe66daf7	-0.22544466
37	0x3d6b98bb	0.057518702
38	0x3ed3f1d4	0.41395438
39	0x3d920719	0.0713026
40	0x3f024f36	0.50902116
41	0xbd008939	-0.031380866
42	0x3e178d0f	0.14799903
43	0xbe65a095	-0.22424538
44	0x3e8e0dbe	0.2774486
45	0xbdef21ae	-0.11676346
46	0x3c6a91f0	0.014317021
47	0xbd1b1d97	-0.037870016
48	0xbdcb47c3	-0.09925797
49	0x3db6ce29	0.08926041
50	0x3e550bd0	0.20805287
51	0x3dc2ce67	0.095120244
52	0xbcd2852f	-0.025698273
53	0x3e971dd4	0.29514945
54	0x3e986ac8	0.29768968
55	0xbb1674c4	-0.0022957781
56	0x3c674588	0.014115699
57	0x3e288754	0.16457874
58	0x3dd2af14	0.102873
59	0x3e88b063	0.26697072
60	0xbe6c4679	-0.23073758
61	0xbe90a445	-0.28250328
62	0xbdae4b55	-0.08510462
63	0xbc8391b6	-0.016060691
64	0xbe581e9c	-0.21105427
65	0xbd5ad9c1	-0.053430323
66	0x3e13acd1	0.14421393
67	0x3ec7b462	0.3900481
68	0x3e80c12b	0.25147375
69	0xbe996524	-0.29959977
70	0x3e323714	0.17403823
71	0xbb48a168	-0.0030613784
72	0xbe47f058	-0.19525278
73	0xbeb9e635	-0.36308447
74	0xbe86b6b6	-0.26311272
75	0x3b1e2c4b	0.0024135287
76	0xbe62becf	-0.221431
77	0xbe2e4707	-0.17019282
78	0x3e09b286	0.13447008
79	0xbe4f2691	-0.20229556
80	0xbbd572b6	-0.0065139187
81	0x3dd5955a	0.10428877
82	0x3e8becfe	0.27329248
83	0xbe338259	-0.17530192
84	0x3dcb39b6	0.09923117
85	0x3c216d1d	0.009852675
86	0xbe49ac9b	-0.1969475
87	0xbe955ee9	-0.29173973
88	0x3d58ebf4	0.052959397
89	0xbe1dec32	-0.15422133
90	0x3e5710d6	0.21002516
91	0xbecf93df	-0.40542504
92	0x3e1df899	0.15426864
93	0x3ebb4810	0.36578417
94	0xbde6cbd0	-0.11269343
95	0x3de8c310	0.1136533
96	0x3df56586	0.11982255
97	0x3c82eef2	0.015983079
98	0x3ded2370	0.11579025
99	0x3e73b3ea	0.237991
100	0xbea2f47f	-0.3182716
101	0x3e8203db	0.25393566
102	0x3e4fd723	0.20296912
103	0x3e80a7bf	0.2512798
104	0x3ef367ab	0.4754003
105	0x3cb850bc	0.022499435
106	0x3e1ba165	0.15198286
107	0xbe3b23c8	-0.18275368
108	0x3e887d38	0.26658034
109	0xbcf3a8f5	-0.02974365
110	0x3e26d2b2	0.16291311
111	0x3e6472c4	0.22309405
112	0x3db90c5f	0.09035563
113	0x3e688d4f	0.22710155
114	0x3d957bfb	0.07299038
115	0x3e1082de	0.14112422
116	0xbd54bde3	-0.051938903
117	0x3edcae15	0.43101564
118	0x3eb990b6	0.36243218
119	0x3db2caad	0.087300636
120	0xbe658dc2	-0.22417358
121	0x3d3a5f6f	0.04550117
122	0x3e07fd4e	0.13280222
123	0x3df25663	0.11832883
124	0xbe8807f0	-0.26568556
125	0xbe9ee96b	-0.3103746
126	0xbeada780	-0.33916855
127	0x3d98fb6d	0.07469831
128	0xbbba1c13	-0.0056796162
129	0xbd18ce72	-0.037306257
130	0x3dfc0f0d	0.12307558
131	0xbef82117	-0.48462746
132	0x3dc2b2d9	0.09506769
133	0x3dcf67e5	0.10127238
134	0x3e84fcf0	0.25974226
135	0xbdd69bc6	-0.1047893
136	0xbe4e74d6	-0.20161757
137	0x3dd6816d	0.10473905
138	0x3e77d0d4	0.24200755
139	0x3d1d12b3	0.03834791
140	0x3da8fc78	0.082512796
141	0x3e1c4e5f	0.15264271
142	0x3dafc7a9	0.08583004
143	0x3e24b5be	0.16084954
144	0xbe086747	-0.13320647
145	0xbd88ef4b	-0.066862665
146	0x3c306828	0.01076702
147	0x3e8eb2e2	0.27870852
148	0x3e0c1bf7	0.13682543
149	0x3e41af2a	0.18914476
150	0x3e9cdc05	0.30636612
151	0x3d7bebb1	0.06150407
152	0x3ed17002	0.40905768
153	0x3eb4911a	0.35266954
154	0x3d338fec	0.043838426
155	0x3e174042	0.14770606
156	0xbdb2b496	-0.0872585
157	0xbeaa01c4	-0.33204472
158	0x3e6f68c7	0.23379813
159	0xbd994461	-0.07483745
160	0x3d9c6ff8	0.07638544
161	0x3dad29f3	0.08455267
162	0x3d6dbeb1	0.058043186
163	0xbe1c74d8	-0.15278947
164	0x3c8ef76b	0.017451962
165	0x3e0995db	0.13436072
166	0xbe2a51b3	-0.16632728
167	0xbebbcc7b	-0.36679444
168	0xbdd65542	-0.104654804
169	0xbcd9ab1c	-0.02657085
170	0xbe3a7e0b	-0.18212144
171	0x3f002016	0.5004896
172	0xbed9048c	-0.42386281
173	0xbdddd2e9	-0.108312435
174	0x3d9427d9	0.07234163
175	0xbda770d1	-0.08175815
176	0x3d80a120	0.06280732
177	0xbe84d5c4	-0.2594434
178	0x3e000292	0.1250098
179	0x3e0256e6	0.12728462
180	0x3d028bad	0.031871486
181	0xbe16c889	-0.14724936
182	0xbdb26001	-0.087097175
183	0xbc24ec2a	-0.0100660715
184	0x3e55ada9	0.20867027
185	0xbcdeb7cc	-0.02718725
186	0xbd84d9ce	-0.064868554
187	0xbe632cb8	-0.22185028
188	0x3e2f4661	0.17116691
189	0x3ecbe618	0.39823985
190	0x3e459627	0.1929556
191	0xbc757544	-0.014981572
192	0x3d1d916e	0.03846877
193	0xbe12512c	-0.14288777
194	0xbd0ea2ad	-0.03482311
195	0xbec59eb7	-0.38597652
196	0xbe71b05e	-0.23602435
197	0x3e2b2c66	0.16716155
198	0x3dc4806c	0.09594807
199	0xbdec053a	-0.115244344
200	0x3e7fc622	0.24977925
201	0x3e588fde	0.21148631
202	0xbce1fcf7	-0.027586443
203	0xbdbcce58	-0.092190444
204	0x3dee2468	0.11628038
205	0x3e6ad202	0.22931674
206	0xbda90ed5	-0.08254782
207	0x3ea12fb0	0.31481695
208	0xbdab56b9	-0.083661504
209	0xbe48fc16	-0.19627413
210	0xbe672557	-0.22572838
211	0x3e6b7a11	0.22995783
212	0x3d74dfdb	0.059783798
213	0xbdbcc91e	-0.092180476
214	0x3ddd1ce8	0.10796529
215	0x3e25df96	0.16198573
216	0x3e0945f1	0.13405587
217	0xbdb68fc5	-0.089141406
218	0x3c940d71	0.018072816
219	0x3e925dd6	0.28587216
220	0xbe08291e	-0.13296935
221	0xbea117ab	-0.3146337
222	0x3d17c0a6	0.03704896
223	0xbcbb8da3	-0.022894686
224	0xbe8788d3	-0.26471576
225	0x3e459577	0.19295298
226	0x3dfde322	0.12396838
227	0xbe37464b	-0.17897908
228	0x3e1927c3	0.14956574
229	0xbd01a693	-0.031653
230	0xbe0bad71	-0.13640381
231	0xbdacdf46	-0.084410235
232	0xbeb9aa29	-0.36262634
233	0xbe3ad30c	-0.1824457
234	0x3dc25404	0.09488681
235	0x3df7d507	0.121011786
236	0xbe9ac712	-0.30230004
237	0x3d7a18c6	0.061058782
238	0xbdf42d77	-0.11922734
239	0xbd9f7308	-0.07785612
240	0xbd22f3e2	-0.039783366
241	0xbe948357	-0.29006454
242	0xbe5d3889	-0.21603598
243	0xbd8a011f	-0.06738495
244	0xbe191f4e	-0.14953348
245	0xbe5a711d	-0.21332212
246	0xbe76e846	-0.24112043
247	0x3d2b5770	0.041831434
248	0xba8bf569	-0.0010677996
249	0xbe77e0e4	-0.24206883
250	0xbd77c435	-0.060489852
251	0xbd2c84f8	-0.042118996
252	0x3ec53e41	0.38524058
253	0x3d23211d	0.0398265
254	0x3e8e4e2b	0.27794012
255	0xbe3db4fa	-0.18526068

transformer.layers.0.self_attn.in_proj_bias f4 [192]
0	0x3e8d9ec6	0.27660197
1	0x3e9c74fc	0.30558002
2	0xbe040a4e	-0.12894556
3	0xbeaa8f59	-0.3331249
4	0x3e34209b	0.17590563
5	0x3ead0ce2	0.3379889
6	0x3eb8ea1d	0.36116114
7	0x3e4f74f1	0.20259453
8	0xbebcc011	-0.36865285
9	0x3ea7fa47	0.32808134
10	0x3e8be438	0.27322555
11	0xbec23d69	-0.37937477
12	0x3eab633e	0.33474153
13	0xbe9cbfb1	-0.30615
14	0xbe9a585a	-0.30145532
15	0x3eb0c9a0	0.34528828
16	0x3ee1fad8	0.4413669
17	0xbe496a6b	-0.19669501
18	0xbc008608	-0.007844456
19	0x3d3b3db6	0.04571315
20	0xbc489f71	-0.012245045
21	0x3cbb8806	0.02289201
22	0x3ec50c7b	0.38486084
23	0xbe8837ac	-0.26604974
24	0xbe91a019	-0.28442457
25	0xbf14b522	-0.58088887
26	0xbf097120	-0.5368824
27	0xbe38650b	-0.18007295
28	0x3c529162	0.012852045
29	0x3f0bdda0	0.5463505
30	0xbea57d86	-0.3232233
31	0x3e15ccb5	0.14628871
32	0x3e93c1dd	0.28858843
33	0xbb83bbfc	-0.004020212
34	0x3df0d84b	0.117600046
35	0x3e94e943	0.29084215
36	0xbe260932	-0.16214445
37	0x3eccbdfd	0.399887
38	0x3dc08221	0.0939982
39	0xbeab86ce	-0.33501285
40	0x3ed308d3	0.4121767
41	0x3dff29ee	0.12459169
42	0xbecdbddb	-0.4018391
43	0x3ebbd50f	0.36685988
44	0xbe7f5045	-0.24932964
45	0x3ecaf4fd	0.39640036
46	0xbeec3ea5	-0.46141544
47	0x3eb0ac87	0.34506628
48	0x3e929335	0.28627935
49	0x3e3cbcf3	0.18431453
50	0xbe261abc	-0.16221136
51	0x3e508e9a	0.20366898
52	0x3c7644b7	0.015031031
53	0xbe48cd81	-0.19609644
54	0xbe880445	-0.26565757
55	0xbe078f19	-0.13238181
56	0x3dcbc14e	0.09948979
57	0x3de54892	0.11195482
58	0x3e822049	0.25415257
59	0x3e3725c3	0.17885499
60	0x3eb544b6	0.35403985
61	0xbdd0d6bd	-0.10197208
62	0xbe1f9b42	-0.1558657
63	0xbe38ab2e	-0.1803405
64	0xbd1e5478	-0.038654774
65	0xbccc0a36	-0.024907213
66	0x3d092558	0.03348288
67	0x3ce09d0c	0.027418636
68	0xbd0fb32a	-0.035082974
69	0xbcaa4d18	-0.020788714
70	0xbce2570c	-0.027629398
71	0xbd1ec51a	-0.03876219
72	0x3cda84fc	0.02667474
73	0xbcc39f26	-0.023879599
74	0xbcd6fe0b	-0.026244184
75	0x3cd224b8	0.025652274
76	0xbce03443	-0.02736867
77	0x3cda5c8d	0.02665546
78	0x3c9c34cf	0.01906815
79	0xbcb739c1	-0.022366406
80	0xbd1f4c5d	-0.038891185
81	0x3d12961a	0.03578768
82	0x3d0d2e4e	0.034467988
83	0x3d2d31d7	0.04228386
84	0xbd3b7501	-0.04576588
85	0xbd12c058	-0.035827965
86	0xbd35f46d	-0.044422556
87	0xbc40e792	-0.011773961
88	0x3d566680	0.052343845
89	0x3d1cac19	0.038250063
90	0x3d188da8	0.03724447
91	0xbc878d9b	-0.016547015
92	0x3d1bd45e	0.038044326
93	0xbd13cf7e	-0.03608655
94	0x3d0662af	0.032808956
95	0x3d1377d0	0.036002934
96	0xbd24d028	-0.040237576
97	0x3cec4a72	0.028844092
98	0xbbf60018	-0.0075073354
99	0xbd5ca76b	-0.0538706
100	0x3d5f15a1	0.054463986
101	0xbd34ec76	-0.04417082
102	0xbd0f0126	-0.034913205
103	0x3cf0f2e4	0.029412694
104	0xbba160a7	-0.004924852
105	0xbd56828a	-0.052370586
106	0x3d05443d	0.03253578
107	0xbd534808	-0.051582366
108	0x3d2f55c4	0.0428064
109	0xbd619c88	-0.05508092
110	0x3c1eb013	0.009685534
111	0xbcc53baa	-0.024076302
112	0x3c76baab	0.015059154
113	0x3cbfaace	0.023396876
114	0x3ad2c158	0.001607935
115	0x3c2f8a44	0.010714117
116	0xbd198dce	-0.03748875
117	0xbc8a72af	-0.016900389
118	0xbc2bba8a	-0.010481486
119	0xbd00edd8	-0.031476825
120	0xbbbab64c	-0.005698001
121	0x3ce99d5d	0.02851742
122	0x3bf9fea6	0.0076292334
123	0x3cd5b6fa	0.026088227
124	0x3ca4b68d	0.020106578
125	0xbcc198ad	-0.023632372
126	0x3a8f3efd	0.0010928806
127	0xbc888056	-0.016662758
128	0x3b680a59	0.0035406558
129	0xbc281522	-0.010258945
130	0x3c37ee19	0.0112262005
131	0x3cce5750	0.025188118
132	0x3ca3ddb1	0.020003172
133	0x3d246728	0.04013744
134	0xbcc20d7b	-0.023688069
135	0x3ab61139	0.0013890631
136	0x3c430e1e	0.011905221
137	0x3c71e39b	0.014763738
138	0xbca449d5	-0.020054737
139	0xbb24c7c2	-0.002514348
140	0x3bda427d	0.006660758
141	0xbad9876a	-0.0016596143
142	0xbbb4331a	-0.005499256
143	0xbc65e89e	-0.014032511
144	0x3cddd8a2	0.027080838
145	0xbb9a4c0b	-0.004708772
146	0x3c03190c	0.008001577
147	0x3cc69791	0.024242194
148	0x3d077420	0.03306973
149	0x3cf02daa	0.02931865
150	0x3c71361a	0.0147223715
151	0x3c86c2f7	0.016450388
152	0x3d0680f7	0.032837834
153	0x3ca34498	0.019930169
154	0x3c22873b	0.009919937
155	0x3bbeaf05	0.005819204
156	0xbc29e72d	-0.010370058
157	0xbc82addd	-0.015952045
158	0xbcf19ed7	-0.029494686
159	0xbd218150	-0.039429963
160	0xbbc78073	-0.0060883104
161	0x3b1db7bb	0.002406581
162	0xbd2ead46	-0.042645715
163	0xbc8b84d8	-0.017031118
164	0xbbb344c8	-0.005470846
165	0xbc4c572d	-0.012471956
166	0xbc9f089f	-0.01941329
167	0xbc3c0b7e	-0.011477349
168	0x3ce8b8fb	0.028408518
169	0xbc264b83	-0.010149839
170	0xb8bc642e	-8.9831985e-05
171	0x3cf5dc47	0.030012263
172	0x3b1c43b9	0.0023844077
173	0x3ce6bf7e	0.028167482
174	0x3cdfcae2	0.027318422
175	0xbc3b41ff	-0.011429309
176	0x3b05550d	0.0020344884
177	0xbbbb1a06	-0.0057098893
178	0xbcb93877	-0.022609932
179	0x3b873d6a	0.004127194
180	0x3ca6d310	0.020364314
181	0xbcf0caab	-0.029393515
182	0x39933a8f	0.00028081654
183	0x3bcdd548	0.0062815286
184	0xbcd57240	-0.026055455
185	0x3aa52f4d	0.0012602598
186	0x3c978184	0.018494375
187	0x3b3ec9a7	0.0029111893
188	0x3c563940	0.013075173
189	0x3d0da76c	0.034583494
190	0xbce252ef	-0.027627436
191	0xbc452906	-0.0120337065

transformer.layers.0.self_attn.out_proj.weight f4 [64, 64]
0	0x3df2bebd	0.11852787
1	0xbd083ab6	-0.033259116
2	0x3daccab2	0.084370986
3	0x3c9f4ed0	0.01944676
4	0xbd5c2b46	-0.053752206
5	0xbc69cd63	-0.014270159
6	0xbc235634	-0.009969283
7	0xbd4b9833	-0.049705695
8	0xbc9ed502	-0.01938868
9	0x3dc3c401	0.09558869
10	0x3ddcab99	0.10774917
11	0xbdbe39ed	-0.09288392
12	0xbc5baf33	-0.01340847
13	0xbe07e4e9	-0.13270916
14	0x3d75502f	0.059890922
15	0xbe16c48b	-0.14723413
16	0x3cbd7250	0.023125798
17	0xbd89ee46	-0.067349
18	0xbbb2103e	-0.005434065
19	0xbdcd10a2	-0.10012938
20	0xbe0feea3	-0.14055876
21	0xbd949102	-0.072542205
22	0x3b9a102c	0.004701635
23	0xbe2fe2fc	-0.17176431
24	0x3dc33c51	0.09532989
25	0xbe1e8295	-0.154795
26	0xbd0ec6e0	-0.03485763
27	0xbd2773c5	-0.04088189
28	0xbe075d56	-0.13219199
29	0xbd087604	-0.033315673
30	0xbd893d92	-0.06701197
31	0x3d233912	0.03984935
32	0x3d8cb54c	0.06870517
33	0xbe0992e6	-0.13434944
34	0xbd8c4411	-0.0684892
35	0xbc6a0f60	-0.014285892
36	0x3d193bb3	0.03741045
37	0x3e02bb86	0.12766847
38	0x3d5a8e67	0.05335846
39	0xbcc1b192	-0.023644242
40	0x3e3f9107	0.18707667
41	0x3dbc2086	0.09185891
42	0xbe152803	-0.14566045
43	0x3da9b776	0.082869455
44	0x3d32398a	0.043511905
45	0x3d38b133	0.045090865
46	0x3e3614ca	0.17781368
47	0x3d41fede	0.0473622
48	0xbc7f7b4e	-0.015593363
49	0x3d0549e9	0.03254119
50	0x3e1bf7d3	0.15231256
51	0x3d882982	0.06648542
52	0x3d45bd77	0.04827639
53	0x3a336d5b	0.00068446033
54	0x3cb00bc0	0.021489978
55	0x3dc1122f	0.09427296
56	0xbd8746bb	-0.06605288
57	0xbda4a71d	-0.08039687
58	0xbddbcbc6	-0.10732226
59	0xbda031ee	-0.07822023
60	0x3dceeb6c	0.10103497
61	0xbda762f3	-0.0817317
62	0xbd6ba0bd	-0.05752634
63	0x3e24c3e6	0.16090354
64	0x3d7d3463	0.061817538
65	0x3c866c19	0.016408967
66	0x3d6c3127	0.057664063
67	0x3cfc437c	0.030793898
68	0xbccb6cac	-0.024832092
69	0xbcaf20ea	-0.021378
70	0xbc21e19a	-0.009880448
71	0xbd95a7c6	-0.07307391
72	0xbdefb7b0	-0.117049575
73	0xbd4fbfb9	-0.05071995
74	0xbd1bc931	-0.038033668
75	0x3d90ece4	0.07076433
76	0xbd90e624	-0.07075146
77	0xbd573cd4	-0.052548245
78	0xbdd98336	-0.106207296
79	0x3c22727e	0.009914992
80	0xbdbc200e	-0.091858014
81	0xbc365ba2	-0.011130245
82	0xbd5efa44	-0.05443789
83	0x3d11547d	0.035480965
84	0xbd0c0cee	-0.03419202
85	0xbde840e8	-0.11340505
86	0x3dd0ed48	0.10201508
87	0xbd91ac0c	-0.071128935
88	0x3d812ccf	0.06307375
89	0x3dcb27be	0.099196896
90	0x3d39f819	0.04540262
91	0xbc8f1421	-0.017465653
92	0xbcb5c1d2	-0.022187147
93	0x3d2a21d4	0.041536167
94	0x3c90f829	0.017696457
95	0xbd79d672	-0.060995527
96	0x3d909331	0.070593245
97	0x3d873c6e	0.06603323
98	0x3cee8277	0.029114945
99	0x3daa235d	0.08307526
100	0xbdd84619	-0.10560245
101	0xbbb54fa9	-0.005533178
102	0x3d2ff329	0.042956505
103	0xbd6832a8	-0.056688935
104	0xbc7c8f9d	-0.015415099
105	0x3d06e3d9	0.032932136
106	0xbb1a5342	-0.002354816
107	0xbd11cec5	-0.03559758
108	0x3d31a3d3	0.043369126
109	0xbbbd1d17	-0.00577129
110	0xbd024e62	-0.031813033
111	0xbdbbc91f	-0.0916922
112	0x3d5469f3	0.051858854
113	0xbd7b89ad	-0.061410595
114	0xba30ebdf	-0.0006749015
115	0x3dc07cec	0.09398827
116	0xbce66968	-0.028126433
117	0xba365898	-0.00069559505
118	0xbd7e898d	-0.062142897
119	0xbda0ac2a	-0.07845338
120	0xbca0791e	-0.019589003
121	0x3df2d836	0.11857645
122	0x3db75684	0.089520484
123	0x3db37d29	0.08764107
124	0xbd014347	-0.0315583
125	0xbcf926e7	-0.030414058
126	0xbd60f926	-0.054925106
127	0xbd62958a	-0.055318393
128	0xbe222da2	-0.1583772
129	0xbe562186	-0.20911226
130	0xbe1afc81	-0.15135385
131	0x3ddbc24f	0.10730421
132	0x3d6e9b02	0.058253296
133	0x3d1acd5b	0.0377935
134	0x3d107782	0.03527022
135	0x3ddedc2a	0.10881837
136	0xbc9fcef7	-0.019507868
137	0x3a54f803	0.0008124115
138	0x3bc521e0	0.006016001
139	0xbe373b9e	-0.17893836
140	0xbe0d2fc7	-0.13787757
141	0x3e150687	0.14553271
142	0x3dca230e	0.098699674
143	0x3d09268d	0.03348403
144	0xbda927ff	-0.08259582
145	0xbd1df2cf	-0.03856164
146	0xbd4f675f	-0.05063569
147	0xbdaf724b	-0.085667215
148	0x3cdf550b	0.027262231
149	0x3c634b3c	0.013872918
150	0xbd784f09	-0.06062225
151	0xbcd6315d	-0.026146585
152	0xbd245d1d	-0.040127862
153	0x3d012365	0.031527895
154	0x3bac3e5f	0.0052564587
155	0xbbd7e878	-0.0065889917
156	0x3d3d272c	0.046179935
157	0xbc84eb4c	-0.01622548
158	0x3da44973	0.08021822
159	0x3c8c5397	0.017129702
160	0xbe0a9bb2	-0.13535956
161	0xbce80192	-0.028321061
162	0x3e147c45	0.1450053
163	0xbc8e6319	-0.017381238
164	0xbdbe80f5	-0.0930194
165	0xbd89ef24	-0.067350656
166	0x3b7c4a5f	0.0038496477
167	0x3dc5da5b	0.096607886
168	0xbdfbaf71	-0.12289322
169	0xbd849fca	-0.0647579
170	0x3d70ed28	0.05881992
171	0x3cbac5a9	0.02279933
172	0xbcce055c	-0.02514904
173	0xbe554aa0	-0.20829248
174	0x3dc74129	0.09729225
175	0xbe0a743d	-0.13520904
176	0xbddab8e2	-0.10679795
177	0xbdc90314	-0.0981504
178	0xbd8cb189	-0.068698
179	0x3c352737	0.011056713
180	0x3d3c3ac2	0.045954473
181	0xbd919f3d	-0.071104504
182	0xbcd4b63a	-0.025965799
183	0xbe0cdf6b	-0.13757102
184	0x3d50005a	0.050781585
185	0xbdbcaa0e	-0.09212123
186	0x3cb1f089	0.021721141
187	0x3cc994ab	0.024607023
188	0x3d68c974	0.056832746
189	0x3d897bd1	0.06713069
190	0xbd0ddac3	-0.034632456
191	0xbd850f5c	-0.0649707
192	0x3d95bee8	0.07311803
193	0x3d852adc	0.065023154
194	0xbde5f83a	-0.11228986
195	0x3d86a99a	0.06575318
196	0xbcc99c17	-0.024610562
197	0xbda3ce07	-0.07998281
198	0xbcab9193	-0.020943439
199	0xbd903892	-0.0704204
200	0xbd6e7fa6	-0.058227204
201	0x3c046d0d	0.00808264
202	0xbdb2a453	-0.087227486
203	0x3d131dc2	0.03591705
204	0xbc3e8a4f	-0.011629655
205	0xbd4fafc8	-0.050704747
206	0x3d23d2f3	0.0399961
207	0xbd30ecc7	-0.04319456
208	0xbc87952c	-0.016550623
209	0xbdb7bb5e	-0.08971284
210	0x3da6d417	0.08145922
211	0xbcdf639a	-0.027269173
212	0xbcf2fecf	-0.029662518
213	0x3de62405	0.11237339
214	0xbc4b1676	-0.012395492
215	0x3d33ac52	0.04386551
216	0x3c340fc6	0.010990089
217	0x3cf24b6e	0.029576983
218	0xbd61eac0	-0.055155516
219	0x3d2d228a	0.042269267
220	0x3d21e0a7	0.039520886
221	0x3d38b419	0.04509363
222	0xbd9ab6de	-0.075544104
223	0x3d1e6dd5	0.038678963
224	0x3c422d34	0.011851598
225	0x3d53eb96	0.051738344
226	0x3d9e1c38	0.07720226
227	0x3c89586a	0.016765792
228	0x3cc94ff6	0.024574261
229	0xbd9ae435	-0.07563058
230	0x3d307f13	0.043089937
231	0x3ce64749	0.028110163
232	0x3d185f20	0.037200093
233	0xbc001bb7	-0.007819108
234	0x3de9ed93	0.11422267
235	0x3dd9cf47	0.10635238
236	0xbd3a499c	-0.045480356
237	0xbc127bc2	-0.008940639
238	0xbc227b27	-0.009917057
239	0x3dac9949	0.08427674
240	0xbd016eef	-0.031599935
241	0x3c99f926	0.018795561
242	0xbd64fe2d	-0.055906463
243	0x3d8794b6	0.06620161
244	0x3dec5ec0	0.1154151
245	0x3cab41b7	0.020905359
246	0x3ddd8789	0.10816867
247	0x3db564b3	0.088570975
248	0xbd96f3e5	-0.07370738
249	0xbd7eb000	-0.062179565
250	0xbd28d0ab	-0.041214626
251	0xbd0d7b93	-0.034541678
252	0x3ce95010	0.02848056
253	0xbb47be99	-0.0030478595
254	0xbd1bff66	-0.038085364
255	0xbdfbfe0d	-0.12304316

transformer.layers.0.self_attn.out_proj.bias f4 [64]
0	0x3c30cb55	0.010790666
1	0xbb07ec82	-0.0020740335
2	0x398d29b6	0.00026924693
3	0xbbe2ea87	-0.0069249305
4	0x3bb82d8a	0.005620663
5	0x3ac84ca0	0.0015281625
6	0x39c0010b	0.0003662187
7	0xbc35dab0	-0.011099502
8	0xbc56de79	-0.013114565
9	0xbb97aa89	-0.0046284837
10	0x3ae9c1ec	0.0017834282
11	0xbace6ae0	-0.0015748404
12	0x3ae91cea	0.0017785106
13	0x3b8e7a33	0.0043480634
14	0x3c81f786	0.015865099
15	0xbbd25aa6	-0.0064194975
16	0xba821df8	-0.0009927144
17	0x3bc7961c	0.0060908925
18	0x3b8aea64	0.0042393673
19	0x3bf9bb04	0.007621171
20	0x3c214460	0.009842962
21	0x3b70d466	0.0036747693
22	0x3c3fa102	0.011696102
23	0x3c0058f3	0.007833707
24	0xbad4ff29	-0.001625036
25	0x3b1856ea	0.0023245164
26	0xbbe0973c	-0.006853966
27	0xbbf121ca	-0.0073587643
28	0x3a9ac094	0.001180666
29	0xba16d61b	-0.000575395
30	0x3c8aa44b	0.016924044
31	0xbcb127b5	-0.02162538
32	0xbbaa4f6b	-0.0051974556
33	0xbb834af2	-0.004006737
34	0x3b0d4951	0.0021558593
35	0x3bb06325	0.0053829127
36	0xbbe434d0	-0.0069643036
37	0xbc30d21d	-0.010792282
38	0x3b140766	0.0022587418
39	0x3ba16a9d	0.0049260394
40	0xbad3ef6f	-0.0016169379
41	0x3b855c0b	0.0040698103
42	0x3c5de4d6	0.013543328
43	0xbbc12dfe	-0.0058953753
44	0x3b62cb66	0.0034606098
45	0x3b2ac461	0.0026056992
46	0x3b7f359d	0.0038941868
47	0xbbe64abc	-0.007027952
48	0xbb9d983f	-0.004809409
49	0x3badd2d8	0.0053046755
50	0x3b000435	0.0019533758
51	0x3b63d3ea	0.0034763762
52	0xbc3c1ea8	-0.011481918
53	0x3b90416e	0.004402331
54	0xbbaf29f1	-0.005345576
55	0xbbed782b	-0.007246991
56	0xb93f6c28	-0.00018255471
57	0xbaad46fb	-0.0013220006
58	0xbb9fa197	-0.004871558
59	0x3ba22daf	0.0049492936
60	0x3b383e5c	0.002811334
61	0x39dceeea	0.00042139675
62	0x3c3fb8ad	0.011701745
63	0x3b6ca3c5	0.0036108356
